Models/AutogluonModels/Descriptors_2D/models/NeuralNetFastAI/model-internals.pkl (torch, 307668 bytes, 15 tensors)

weight f4 [159]
000000 ca 33 84 3f c9 0c 6b 3f 9d 9d 75 3f c8 d2 6e 3f
       1.0328305 0.91816384 0.95943624 0.93290377
000010 3f cf 69 3f f5 de 50 3f 58 4f 64 3f f3 75 4f 3f
       0.9133186 0.81590205 0.8918357 0.8103935
000020 a9 84 bc 3f 70 18 84 3f 7c 64 74 3f 35 66 6f 3f
       1.4727985 1.0319958 0.95465827 0.9351533
000030 c9 82 79 3f b5 dc 76 3f 78 25 64 3f 6c 65 61 3f
       0.9746519 0.9643052 0.8911967 0.8804538
000040 de 9d 5e 3f 22 d7 65 3f 6a 8d 70 3f 0f 42 5a 3f
       0.86959636 0.8978139 0.9396578 0.8525705
000050 8e f4 68 3f 35 12 68 3f 55 70 60 3f 41 81 6b 3f
       0.9099816 0.9065278 0.87671405 0.919941
000060 9b 47 59 3f 58 07 52 3f a0 48 7b 3f 09 72 83 3f
       0.84874886 0.82042456 0.9815769 1.0269176
000070 f3 8e 63 3f b8 d1 7a 3f 00 cf 93 3f 1e a8 5b 3f
       0.8889 0.97976255 1.1547546 0.858034
000080 b7 a5 81 3f 28 17 84 3f eb b6 77 3f b1 fa 6a 3f
       1.0128697 1.0319567 0.96763486 0.91788775
000090 94 1f 6a 3f e3 55 6b 3f 26 7c 65 3f 80 71 73 3f
       0.91454434 0.9192793 0.8964256 0.9509506
0000a0 72 2a 7b 3f cb bc 69 3f 78 f2 6e 3f cb 49 66 3f
       0.9811164 0.913037 0.9333873 0.8995635
0000b0 c0 18 69 3f 8b fd 65 3f 2d 71 61 3f bb a1 6b 3f
       0.9105339 0.8984 0.8806332 0.92043656
0000c0 b6 66 72 3f 8a 8c 68 3f f6 f6 69 3f cd 81 7b 3f
       0.94687974 0.90839446 0.9139246 0.98244935
0000d0 cb 1d 7e 3f 13 5e 85 3f 7d 9e 6a 3f df df 78 3f
       0.9926421 1.0419334 0.91648084 0.972166
0000e0 4d ca 65 3f db da 76 3f e3 e2 6f 3f 2e 0d 5f 3f
       0.8976181 0.96427697 0.93705577 0.87129486
0000f0 a8 ba a2 3f f1 98 72 3f 5e da 6d 3f 6f d7 77 3f
       1.2713213 0.9476462 0.92911327 0.968131
000100 d1 a2 79 3f 58 06 6c 3f d1 bc 68 3f 1f 44 6d 3f
       0.97514063 0.9219718 0.9091311 0.9268207
000110 0e 42 6c 3f 35 cb 6f 3f 85 ba 93 3f 13 d8 8d 3f
       0.9228829 0.93669444 1.1541296 1.1081566
000120 00 4d 85 3f aa 46 7e 3f dd 19 75 3f 08 41 74 3f
       1.0414124 0.99326575 0.9574259 0.9541173
000130 6c 9b 7b 3f bd 9d 76 3f 00 0c 6c 3f b5 91 79 3f
       0.9828403 0.9633444 0.9220581 0.97487956
000140 ae cc 77 3f 12 35 81 3f 00 00 71 3f d9 d8 67 3f
       0.9679669 1.0094321 0.94140625 0.9056526
000150 5a a7 6a 3f 71 c5 69 3f 3d 3d 62 3f e2 4a 5c 3f
       0.9166161 0.91316897 0.8837469 0.8605176
000160 72 b0 7c 3f 35 c3 79 3f 37 6b 71 3f 08 fc 84 3f
       0.98706734 0.9756349 0.9430422 1.0389414
000170 6c 4d 81 3f 1e bc 64 3f 8d 2f 6a 3f 00 14 64 3f
       1.0101752 0.89349544 0.91478807 0.8909302
000180 9e 7b 6a 3f 9b ef 63 3f 37 97 62 3f eb 5e 68 3f
       0.91594875 0.89037484 0.88511986 0.90769833
000190 60 3f 6c 3f c0 60 83 3f 59 6d 65 3f 77 d9 83 3f
       0.922842 1.0263901 0.89619976 1.030074
0001a0 8f f0 6f 3f cf 1d 75 3f 44 88 73 3f 49 87 6b 3f
       0.9372644 0.9574861 0.951298 0.92003304
0001b0 63 e5 70 3f 35 0c 90 3f 7d f8 6c 3f 12 a7 91 3f
       0.94100016 1.1253725 0.92566663 1.1379111
0001c0 ed da 6a 3f cd b8 71 3f 78 6f 72 3f 62 95 6c 3f
       0.91740304 0.9442261 0.9470134 0.9241544
0001d0 8a a5 75 3f cb 04 67 3f 38 b9 80 3f a1 85 71 3f
       0.9595572 0.9024169 1.0056524 0.94344527
0001e0 2d d9 72 3f 08 fe 6e 3f 7f 52 63 3f ad ad 47 3f
       0.94862634 0.9335637 0.88797754 0.77999383
0001f0 e3 ca 4a 3f b2 c0 79 3f 20 1f 7c 3f ff 15 78 3f
       0.7921583 0.97559655 0.98484993 0.96908563
000200 e4 a9 54 3f 8b 99 65 3f d8 e5 6c 3f 2b 61 85 3f
       0.8307173 0.8968741 0.92538214 1.0420278
000210 3d 82 76 3f 83 7c 5a 3f aa 31 7d 3f 7c b4 73 3f
       0.9629248 0.8534624 0.98903906 0.9519727
000220 3a 0d 63 3f 1e be 75 3f da 84 61 3f 13 56 65 3f
       0.8869206 0.9599322 0.8809334 0.89584464
000230 c4 0b 73 3f af ec 6b 3f c7 17 66 3f 13 74 6c 3f
       0.9493983 0.92158026 0.8988003 0.92364615
000240 29 8c 7d 3f 7a 9c a5 3f db 5a 60 3f a6 24 76 3f
       0.9904199 1.2938378 0.87638634 0.9614967
000250 46 cb 71 3f 87 d0 52 3f 25 e2 72 3f c5 04 62 3f
       0.94450796 0.8234944 0.9487632 0.8828853
000260 fc b0 63 3f 30 d6 59 3f 48 9a 75 3f 49 15 7e 3f
       0.8894193 0.8509245 0.9593854 0.9925123
000270 57 80 6a 3f 6e c1 65 3f a0 14 78 3f
       0.9160208 0.89748275 0.9690647

bias f4 [159]
000000 a6 eb 87 bc fd 09 61 3d c2 8f 79 bd 57 6e af bd
       -0.016591858 0.054941166 -0.060928114 -0.085659675
000010 20 95 35 bd fe b9 3b bd 92 92 8f bd 15 96 d5 bc
       -0.04433167 -0.045831673 -0.07010378 -0.026072541
000020 dd 7a f2 3c 3f 9c 5a 3d d4 79 01 bd 78 fd 97 3d
       0.029599601 0.053371664 -0.031610325 0.07421392
000030 1c ac 16 bd ad a4 c6 bd a2 4e 7d bd 6c 42 08 bd
       -0.03678523 -0.09699378 -0.06184257 -0.03326647
000040 1a 00 e9 bd 63 60 e0 3c 1c 06 ae b9 32 9d 4b 3c
       -0.113769725 0.02738971 -0.00033192418 0.012427615
000050 a0 44 89 bd 28 0f 95 3c be a3 37 bc 38 30 fd bc
       -0.06702542 0.018195704 -0.011208473 -0.030906782
000060 fb 99 00 bd c8 92 13 bd 2e 98 a3 3d 2a 84 c2 bd
       -0.031396847 -0.036028653 0.0798801 -0.094978645
000070 0f 12 71 3c 57 44 10 3d 09 b0 0a 3d 1a 58 e3 bc
       0.014713778 0.035221424 0.033859286 -0.027751971
000080 82 9c 3f bc c7 e5 cf bc 89 8b c6 bc bc 31 8d bc
       -0.011695029 -0.025378121 -0.024236457 -0.01723563
000090 be 3a d9 bc 30 ca 90 3b b7 d2 4e bd bc c3 c5 bc
       -0.026517268 0.004418634 -0.050493922 -0.024141185
0000a0 ec ea f2 bb 42 68 7b bd c5 ff f8 3b 91 a5 a4 3d
       -0.007413259 -0.061378725 0.0075988495 0.08039392
0000b0 bd 84 41 bd 96 e3 93 bd 96 53 8a 3d 79 cd 12 3d
       -0.04724573 -0.07221143 0.06754224 0.035840485
0000c0 08 7a fa 3c 2b d6 2d 3c 9d 01 90 3c 54 84 a5 3d
       0.030575767 0.010610144 0.017578894 0.0808188
0000d0 e1 29 c8 bd 99 3e 99 bd 8d 6c db 3c c0 fe 60 3d
       -0.09773613 -0.07482643 0.02678516 0.05493045
0000e0 f9 74 a3 bd 20 b1 10 3c 73 db 2a bd ab 82 54 bd
       -0.07981295 0.008831292 -0.04171319 -0.051882427
0000f0 f4 f4 44 3c 37 79 80 3c 76 c3 3c bd 34 68 6f bd
       0.012021292 0.0156828 -0.046084844 -0.058448985
000100 ba 04 02 3d 01 cb 35 3d cb 36 d8 3b eb c7 c0 3b
       0.03174279 0.044383053 0.0065983287 0.005883207
000110 72 a0 d5 39 eb 9b 16 3d ad ee 9f bd d3 86 05 3c
       0.00040746067 0.03676979 -0.07809196 0.00814982
000120 78 19 0e 3d 05 49 4c bb b4 8c 01 3e 87 88 02 be
       0.034692258 -0.0031171453 0.1265133 -0.12747394
000130 c5 9e 9e bd dd 01 db bb 09 c1 04 bd d7 6c bb bc
       -0.07745127 -0.0066835717 -0.032410655 -0.022879047
000140 8e cb 83 3c fb 93 b1 bc 79 1a 78 bb 29 ab 04 bd
       0.016088273 -0.021677008 -0.0037857576 -0.032389794
000150 e4 b5 1f bb 34 cc be bc f7 e5 24 bd de 53 8b bb
       -0.002436989 -0.023290731 -0.040258374 -0.004251941
000160 2a 36 99 bc 7d 01 9e bb 9e ae de bc a3 e6 c0 3c
       -0.018702585 -0.0048219548 -0.027182873 0.023547476
000170 39 21 6f bc 97 91 24 3d 1a ba 7b 3d bb 60 37 bc
       -0.014595323 0.040177908 0.061456777 -0.011192496
000180 0e f9 fc bc 00 0f 81 bc 26 c6 aa bc d2 1a ff 3d
       -0.030880477 -0.015754223 -0.020846438 0.124562874
000190 e4 2f b7 bd 14 56 50 3d 92 a5 3c bd 8e 4f b5 bd
       -0.08944681 0.05086334 -0.046056338 -0.088530645
0001a0 2f 7f e6 bc b0 b4 38 3c 19 15 6b 3d a1 88 ec bc
       -0.028136818 0.011273548 0.057393167 -0.028873743
0001b0 ff 9e 8e 3d cf f9 be 3b 72 af 93 3c 55 28 1b 3d
       0.0696392 0.0058281193 0.018027995 0.03788026
0001c0 6e 31 84 3b 84 94 aa bb af f3 7b 3c f1 30 a0 3d
       0.004034213 -0.0052056927 0.015377923 0.07821835
0001d0 a0 a4 2a bc 1f ea 53 bd b3 6f 08 bd f9 29 c0 bc
       -0.010415226 -0.051736947 -0.03330965 -0.023457514
0001e0 90 81 7f 3d 49 e2 a9 3b 9d 27 ba 3c b7 fa 07 bd
       0.06237942 0.005184446 0.022723967 -0.033198085
0001f0 59 27 07 3d ac 5a e1 bc 12 01 dd 3c 56 bf 01 bd
       0.03299651 -0.027509056 0.02697805 -0.031676613
000200 7c a8 c2 3d 2f 6a 6d bc 5c bc 58 3b d6 2e f9 3b
       0.09504792 -0.014490648 0.0033071255 0.00760446
000210 f0 3d 5a 3c 22 1f 5a 3d 53 a8 42 3d d0 6c 5a 3d
       0.013320431 0.053252347 0.047523808 0.053326428
000220 da ec a5 bd a4 86 ad bd 70 ec 82 3b 5d 49 31 bc
       -0.081018165 -0.08472946 0.0039954707 -0.010820714
000230 3c 3c b9 bb 17 91 64 3d bd a5 87 ba f3 bc 93 bd
       -0.0056529325 0.05580243 -0.0010349076 -0.072137736
000240 e8 d5 9d bd 9d 11 3e 3c 58 66 d7 ba 62 69 c3 bc
       -0.07706815 0.011600879 -0.0016433699 -0.023853961
000250 48 23 81 bd 00 d9 35 3d 7b 7a 28 3d bb 86 8e 3b
       -0.063055575 0.0443964 0.04113243 0.004349557
000260 d3 cf 91 bc 62 d3 8a bb 15 ab 1b 3d 02 ba fc bb
       -0.017799294 -0.0042366246 0.038004953 -0.0077126035
000270 2d c7 a2 bd 9c fa 29 bd 84 c4 95 bd
       -0.07948146 -0.041498765 -0.07312873

running_mean f4 [159]
000000 ba 71 82 bb 6d e8 e2 3b 39 e2 70 3c 56 12 69 3c
       -0.0039808424 0.00692468 0.014702373 0.014225563
000010 43 2f cc ba 3e c3 2c 3c 3c 1a 37 3c 62 65 2d 3c
       -0.001557805 0.010544596 0.011175688 0.010583254
000020 31 d6 7e 3c 5f 10 79 bb 07 3e f4 bc 88 38 21 3d
       0.015553997 -0.0038004143 -0.029814733 0.039360553
000030 7f b0 2e bd 96 93 e6 bc 0f 38 1e bd 69 e2 f0 bc
       -0.04264879 -0.028146546 -0.03862768 -0.029404836
000040 53 82 e0 bc 91 3e 85 ba 63 46 53 3b 00 6f b2 bb
       -0.027405893 -0.0010165741 0.0032237999 -0.005445361
000050 7e 6f 0e 3b 3a 4d 56 bb 5b 2c 58 3b 6b 8a 0a bb
       0.0021733935 -0.003269984 0.0032985422 -0.0021139632
000060 96 fe be 3a 26 08 1d 3a 16 63 cd ba 51 fd 2d bc
       0.0014571722 0.0005990289 -0.0015669789 -0.010619477
000070 96 4c 02 bc 23 3e 17 bc de f3 b7 3b f2 9d d8 bb
       -0.00795283 -0.009231123 0.005613788 -0.0066106254
000080 16 a2 e4 bb b8 cd 36 ba 4e d6 76 3c 98 8f 1e 3c
       -0.00697733 -0.00069734035 0.015065743 0.00967779
000090 73 95 bd 3c 7e e4 55 3c 4d 91 00 3d 07 df cb 3c
       0.023142552 0.013054965 0.03138857 0.024886621
0000a0 af d8 29 3c 2e 3b 3d bc 21 00 8d 3c d9 fb d0 3b
       0.010366603 -0.011549754 0.017211976 0.006377679
0000b0 8b 5e 9d ba 7c 46 13 3c cf 6e fa bc 67 b0 7c 3b
       -0.0012006325 0.008988973 -0.030570416 0.0038557292
0000c0 43 ac 81 bb bf 2e 93 bc b1 ec 26 bc 76 41 86 bc
       -0.003957303 -0.017966626 -0.010188268 -0.016388636
0000d0 ca 44 dd bb 8c fb a5 3c c5 6d bb bc 11 64 55 3c
       -0.006752585 0.020261548 -0.02287949 0.013024346
0000e0 86 44 52 bc a4 b8 c8 3c 88 ea f1 3c ae 3e d3 bb
       -0.01283372 0.024502106 0.029530779 -0.006446681
0000f0 01 3e 90 bb 76 e2 b2 3b 58 f3 12 bc 16 54 e1 3b
       -0.0044019227 0.005459125 -0.0089691505 0.006876479
000100 10 4d 17 ba 6b 3e 89 3c 56 61 11 3b 7c 6a 5e bc
       -0.0005771676 0.016753396 0.002218326 -0.013575193
000110 e0 f4 e2 3b 50 72 25 bb d2 f7 33 3b 94 76 6f 3c
       0.006926164 -0.0025245138 0.0027460945 0.014615674
000120 40 2a 45 bc 0d 77 af 3c d7 89 ec bb 24 62 03 3c
       -0.012033999 0.021419073 -0.00721858 0.008019004
000130 3c e2 b7 bb e3 b1 65 bc 56 60 08 bc d3 71 87 bc
       -0.005611686 -0.014019462 -0.0083237495 -0.016533768
000140 f1 a7 f8 bb 8f 78 d7 3a a4 19 18 3c 25 d5 58 bc
       -0.0075883796 0.0016439128 0.009283457 -0.013234411
000150 b8 83 82 3b f0 b4 66 3c 8e 9d b5 bb a0 79 a7 bb
       0.0039829873 0.014081225 -0.0055424636 -0.0051109344
000160 42 1f b3 3c d8 81 8b bc d3 30 da bb f7 e2 45 3c
       0.02186549 -0.017029688 -0.0066586523 0.012078038
000170 63 9d a0 bc d6 85 22 bc f8 10 d3 3b cb 8d 29 bc
       -0.019606298 -0.009919604 0.006441232 -0.0103487475
000180 f2 2a de bc 47 b8 b9 bc 96 a8 7d 3c 53 c1 86 3c
       -0.027120087 -0.022670878 0.015482089 0.016449606
000190 5f 28 15 3c cf 97 be 3c a7 a3 91 bc de c6 d7 3a
       0.0091038635 0.023265747 -0.01777823 0.0016462465
0001a0 54 55 8d 3c c6 98 0d 3c 3e d8 43 3c bb 80 44 3b
       0.017252602 0.008642381 0.011953412 0.0029983956
0001b0 bb 80 44 3b b7 42 a1 bb e9 82 96 bc c7 4e 29 3c
       0.0029983956 -0.004921283 -0.01837297 0.010333723
0001c0 11 c0 29 bb 15 d8 9f 3c 88 8c 01 3c 1d 1c 36 3c
       -0.0025901834 0.019512216 0.00790704 0.011115101
0001d0 0b 63 4c 3c b4 62 73 3c 18 84 4b 3b cb 49 58 bc
       0.012474786 0.014855076 0.0031054076 -0.013201187
0001e0 26 46 11 bc 62 30 9a bc 14 5d ee 3b 53 93 31 3b
       -0.008866822 -0.018821899 0.0072742794 0.0027095869
0001f0 e1 99 6e bc 3f ab 92 bc 87 51 90 bc 49 41 b8 ba
       -0.014563055 -0.017903922 -0.017617 -0.0014057542
000200 e1 a9 d4 3b 3e 9a fe bb 04 fd 7d 3c 3b 2c 1f bb
       0.0064899777 -0.007769852 0.015502218 -0.0024287838
000210 8a 1b 54 bb 08 10 71 3c 90 ee 49 bb 04 31 d5 bb
       -0.0032365047 0.014713295 -0.003081236 -0.0065060873
000220 ed 0c 3a bc f8 fc 6d bb 8e c3 cf bc 9b 4b a2 3b
       -0.011355621 -0.0036314111 -0.025361802 0.0049528605
000230 a8 79 7e bc d8 92 34 3d b4 82 e6 3c 47 76 ef 3c
       -0.015531935 0.044085354 0.028138496 0.029231204
000240 3a 49 bc 3c 06 c2 30 3c 35 cb 07 bb 2a 2e d6 bb
       0.022984136 0.010788446 -0.0020720486 -0.006536265
000250 88 73 dc bb af 96 a7 bb c7 83 11 bb 4a c1 76 bc
       -0.0067276396 -0.0051143984 -0.002220379 -0.015060732
000260 86 5b a0 bb 35 ae 91 b9 ac 6f d4 3c 51 c1 25 3c
       -0.004893723 -0.0002778635 0.025932156 0.010116891
000270 91 19 c3 3c 29 80 35 bc f8 9c 47 bc
       0.023815902 -0.011077919 -0.01218342

running_var f4 [159]
000000 02 bd 81 3f 25 95 81 3f a1 98 82 3f e1 d8 83 3f
       1.0135806 1.012364 1.0202829 1.0300561
000010 14 af 7f 3f c2 a3 82 3f 9f 9f 82 3f 1a a2 82 3f
       0.99876523 1.0206225 1.0204962 1.020572
000020 d3 61 7c 3f 08 94 80 3f 35 8c 72 3f b4 65 7e 3f
       0.9858677 1.0045176 0.9474519 0.99373937
000030 0d 2f 7c 3f 9c 86 78 3f eb a7 88 3f 90 11 87 3f
       0.98509294 0.970804 1.0676244 1.0552235
000040 fb 69 86 3f ff 48 3b 3d f7 16 31 3d c2 e6 52 3d
       1.0501093 0.04572391 0.04323479 0.0514896
000050 59 cf 39 3d ca d0 41 3d f1 9d 4c 3d d1 fa 47 3d
       0.045363758 0.047318257 0.049955312 0.04882318
000060 8f b8 57 3d 83 d5 79 3f 44 fb 7e 3f 1e d6 7a 3f
       0.052666243 0.9759142 0.9960215 0.97982967
000070 fe d5 7f 3f 3c 05 7f 3f 84 0a 81 3f b9 f2 7d 3f
       0.999359 0.9961736 1.0081334 0.9919849
000080 95 e8 7d 3f 5e 9b 83 3f 52 f1 89 3f 44 2e 8a 3f
       0.99183017 1.0281789 1.077677 1.0795369
000090 eb 64 8f 3f b0 f9 91 3f ff b1 94 3f 27 7b a3 3f
       1.1202673 1.1404324 1.161682 1.2771958
0000a0 fc 6e 81 3f 71 49 7a 3f b6 69 86 3f 6a d1 60 3f
       1.0111995 0.9776831 1.050101 0.8781954
0000b0 03 7d 6a 3f f0 3e 80 3f f5 23 7e 3f 37 75 7a 3f
       0.91597 1.0019207 0.99273616 0.97835106
0000c0 d6 78 85 3f 8f 05 71 3f ee b0 7c 3f 69 1b 6c 3f
       1.0427501 0.94149107 0.98707473 0.92229325
0000d0 23 ad 7a 3f 92 4e 88 3f a4 a6 75 3f ed 03 7c 3f
       0.97920436 1.0648978 0.959574 0.9844349
0000e0 18 4c 7b 3f e3 6d 89 3f 42 eb 83 3f 15 ba 80 3f
       0.98162985 1.073666 1.030617 1.0056788
0000f0 1c 5b 80 3f 85 70 82 3f 85 12 82 3f b6 7f 83 3f
       1.0027804 1.0190588 1.0161902 1.0273349
000100 b5 08 84 3f 4c dc 8b 3f 40 60 7d 3f 4e 90 7a 3f
       1.0315157 1.0926604 0.9897499 0.9787644
000110 26 05 89 3f b2 2c 80 3f 6b 75 83 3f a0 86 83 3f
       1.0704696 1.001364 1.0270208 1.0275459
000120 59 7e 81 3f df 20 88 3f 22 dc 7f 3f e3 cf 85 3f
       1.0116683 1.0635031 0.9994527 1.0454067
000130 fb 3e 82 3f 0c 28 75 3f db c1 72 3f 9d aa 7b 3f
       1.017547 0.9576423 0.9482705 0.9830721
000140 8a 3c 7e 3f 2e 48 82 3f 39 6e 85 3f 21 51 7b 3f
       0.99311125 1.0178277 1.0424262 0.9817067
000150 ea d5 7e 3f e4 67 84 3f 5b 9a 58 3f 34 64 5d 3f
       0.99545157 1.0344205 0.8461053 0.8648102
000160 a0 0e 87 3f fe e4 7d 3f f4 3c 80 3f 18 9e 82 3f
       1.0551338 0.9917754 1.0018601 1.0204496
000170 a1 c1 71 3f c8 72 79 3f ef 0f 87 3f 5e a5 70 3f
       0.9443608 0.9744077 1.0551738 0.9400233
000180 03 0b 95 3f 61 15 8e 3f a7 aa 70 3f 81 1c 83 3f
       1.1643986 1.1100274 0.94010395 1.0243074
000190 3f 2d 81 3f 3d 9b 64 3f 14 43 7e 3f 7e 15 83 3f
       1.0091933 0.89299375 0.99321103 1.0240934
0001a0 cc 31 82 3f 25 e1 87 3f fd 1d 88 3f 9b 27 87 3f
       1.0171447 1.0615584 1.0634152 1.0558962
0001b0 9b 27 87 3f 4d dd 80 3f af 07 7d 3f 84 16 84 3f
       1.0558962 1.0067536 0.9883985 1.0319371
0001c0 dc 09 81 3f b1 ac 81 3f 41 66 87 3f b4 c9 87 3f
       1.0081134 1.0130826 1.057808 1.060843
0001d0 92 2b 89 3f a7 a9 82 3f d7 74 81 3f e5 c4 68 3f
       1.0716422 1.0208024 1.0113782 0.9092544
0001e0 7f 6b 6c 3f bd c8 0a 3f 40 96 a3 3f 72 fa 8e 3f
       0.92351526 0.5421255 1.2780228 1.117018
0001f0 3c 51 0c 3f 35 67 59 3f 9f bf 5b 3f c7 7c 86 3f
       0.54811454 0.84923106 0.85839266 1.0506829
000200 6d 03 c9 3f 47 21 59 3f d1 cd 88 3f 5b eb 7c 3f
       1.570417 0.848164 1.068781 0.98796624
000210 b1 a6 82 3f 4c a0 93 3f c6 e9 77 3f 59 2c 41 3f
       1.020712 1.1533294 0.96841085 0.75458294
000220 b5 a1 63 3f 0b 76 8f 3f 19 9e 04 3f 4b b0 89 3f
       0.8891862 1.1207899 0.5180374 1.0756925
000230 2a 42 1b 3f 6a 90 9d 3f fe 70 d3 3f ec 3d ba 3f
       0.60647833 1.2309697 1.6518857 1.4550147
000240 a8 49 41 40 a4 c3 84 3f 63 cf 8c 3f 15 6c 5b 3f
       3.0201206 1.0372205 1.1000789 0.85711795
000250 33 a9 52 3f e9 be 59 3f 68 72 74 3f e7 27 57 3f
       0.8228943 0.8505693 0.9548707 0.8404526
000260 b9 82 67 3f aa 97 7e 3f 20 d7 ad 3f 49 f3 8d 3f
       0.9043384 0.9945017 1.3581276 1.108987
000270 64 80 ed 3f e0 fa 64 3f 40 57 c3 3e
       1.8554807 0.89445305 0.38152504

weight f4 [200, 159]
000000 32 d0 a1 3c 29 06 88 3d e8 aa 91 bd 0a 11 89 bd
       0.019752596 0.066418 -0.07112676 -0.06692703
000010 69 6a 05 3b ca d6 5c 3b 20 e1 8d bc 66 d5 35 3d
       0.0020357615 0.003369736 -0.017319262 0.044392966
000020 d8 e6 47 3d 7a 3a 8d 3c df 84 10 bd 19 25 11 3c
       0.048804134 0.017239798 -0.035282966 0.008858942
000030 ab 19 c6 bd ea 43 83 bd 36 dc 8f bb 74 fd dd 3b
       -0.096728645 -0.06409438 -0.004390265 0.0067745987
000040 dd a0 0c 3d 9c cf c5 3c 42 53 75 bd bd 85 5d 3b
       0.0343331 0.024146847 -0.059893854 0.0033801638
000050 e5 d2 be ba 13 7a a4 3d c0 b1 73 bd 18 81 69 3d
       -0.0014558701 0.08031096 -0.059495687 0.05700788
000060 9d 9f f1 bc ff 17 5b bc 0f 74 b7 3c ac 05 de bd
       -0.029495055 -0.01337242 0.022394208 -0.108409256
000070 23 df 94 bd aa a6 58 bd ac 53 b6 bd 70 42 2f 3d
       -0.072691225 -0.05289332 -0.08902678 0.04278797
000080 87 49 ad bd c1 39 69 bd 61 47 4e bd 36 a5 8d bd
       -0.0846129 -0.056939844 -0.05036104 -0.06916277
000090 f4 f1 cf bc 12 42 b5 3d cc 2e 69 3d 5c 33 72 3d
       -0.025383927 0.088504925 0.056929395 0.05913101
0000a0 25 23 ce bc bb 41 23 bd ee ae 35 3d 9a e2 b3 bd
       -0.025163243 -0.039857607 0.04435628 -0.08783455
0000b0 66 17 8d bb da cd 49 bd 88 a5 00 3d ad 48 c9 3c
       -0.004305768 -0.04926858 0.031407863 0.024570787
0000c0 d9 19 ee 3c fa c6 bd bc 18 97 25 3d d2 28 38 3d
       0.02906506 -0.023166168 0.040427297 0.044960804
0000d0 6a 7e 17 3d 78 83 10 3d a6 0d 80 3d 75 2c 74 bd
       0.036985792 0.03528163 0.06252603 -0.05961271
0000e0 9f 85 81 bc 60 38 88 bc 3c 82 3d bd 1a f2 12 bd
       -0.015810786 -0.016628444 -0.04626678 -0.035875417
0000f0 39 33 c2 3d 7f 1b 0e 3c 77 6b b8 bd 63 ae 31 3d
       0.09482426 0.008673548 -0.09004872 0.0433792
000100 70 23 0e 3d 7d 96 26 3c a8 48 0a bd 87 fa b0 3c
       0.034701765 0.010167715 -0.033760697 0.021603836
000110 83 b3 18 3c 75 81 bb 3d 5f 4f 52 bc 39 3c ac 3c
       0.009320143 0.09155551 -0.012836306 0.02102481
000120 4d 7d 0d bd 50 f4 93 3d 3b 8a 5d 3d 84 9a a2 3d
       -0.034543324 0.07224333 0.054086905 0.07939628
000130 a5 9f 06 3c 7d 44 d7 bd f6 88 bb b8 14 a1 98 bc
       0.008216773 -0.1051111 -8.942366e-05 -0.018631496
000140 a2 0c a0 bd a4 d4 ae 3d 3f 1e 53 3d 5e 96 91 bd
       -0.078149095 0.08536652 0.051542517 -0.071087584
000150 19 72 6b bc f7 b3 63 bc 1d 84 86 bb 76 b1 58 bd
       -0.014370465 -0.013897887 -0.0041051046 -0.052903615
000160 c8 62 31 3d a3 ae 45 bd ab 62 16 3d 71 59 8f 3d
       0.043307096 -0.04826225 0.03671519 0.069994815
000170 8e 8f 47 3d 7f fd 3a 3d 57 82 49 bd 3d c1 78 bd
       0.04872089 0.04565191 -0.049196567 -0.06073116
000180 4e 6d a5 3c 2a d4 10 3d c3 53 e8 bc 73 9a cd bd
       0.020193722 0.035358585 -0.028360253 -0.100392245
000190 26 ca c1 3d 27 24 78 3d 21 63 ce bc 5b bf ab 3c
       0.09462385 0.060581353 -0.025193753 0.020965269
0001a0 88 a9 fd bd e7 d3 f5 3c 03 8f f3 bc 66 84 2f bd
       -0.12385851 0.03000827 -0.02973128 -0.042850874
0001b0 f3 bd 54 3c 5c 83 10 3d 8d 7d 04 bd ec 1b 9a 3d
       0.012984741 0.035281524 -0.032346297 0.07524857
0001c0 8b 15 84 bd 98 ca 01 3d 11 14 a5 3d 6c f4 24 bd
       -0.064494215 0.03168735 0.08060468 -0.04027216
0001d0 60 af 45 3c d7 50 fa 3c d0 24 c1 bc 7c 4f e2 bb
       0.012065738 0.030556126 -0.023577124 -0.006906448
0001e0 62 67 56 bc 38 d5 fa bb fb 3b c1 bd 7a 5f 1e bd
       -0.013086172 -0.007654812 -0.094352685 -0.038665272
0001f0 0d 79 d2 bd db 99 47 bd db 5a 48 3b 37 b2 82 bd
       -0.10276995 -0.048730712 0.0030571732 -0.06381648
000200 07 de d4 bd 40 4f 96 bd 6b ed 1b bc ca 1d 3a bb
       -0.10393911 -0.073393345 -0.009517054 -0.0028399103
000210 75 bb 2d bd 85 6d 7f bc 84 0d a3 3d 0c c8 b6 3b
       -0.0424151 -0.015590076 0.07961562 0.0055780467
000220 74 97 49 bc 7e 77 87 bc 36 f8 04 3c 14 a4 3d 3d
       -0.012304176 -0.01653647 0.008115819 0.046299055
000230 38 14 7b 3d 1c fc 36 3d 39 dd ba 3d a3 a2 a4 bb
       0.06129858 0.044674024 0.09124226 -0.0050242706
000240 0e be 96 bd 3e f9 46 3b 9c eb 63 3d 9b da 07 3c
       -0.07360469 0.0030360962 0.055644616 0.008291866
000250 30 94 08 bd b1 b6 ad bd 0f aa c7 bd 24 77 c2 bd
       -0.033344448 -0.08482111 -0.09749233 -0.094953805
000260 8f de da bc 55 c8 d0 3c 76 b8 74 3d eb d1 98 bd
       -0.026717452 0.02548615 0.05974623 -0.07461914
000270 6f 98 d3 3c 41 32 8d bd 4f d2 5d bd 00 41 48 bd
       0.025829522 -0.06894351 -0.054155644 -0.048890114
000280 52 ed 4f 3c 97 27 11 3d f3 cb 6d bd 3b 77 b4 bd
       0.012690859 0.035438146 -0.05805583 -0.08811804
000290 4d 63 18 3b a5 bf 67 3c 0f 03 af bc ef 87 a0 bd
       0.0023252547 0.014144813 -0.021363763 -0.07838427
0002a0 65 ac 08 be de d2 55 bb b8 a4 5d 3d 2c 9d 86 bc
       -0.13347013 -0.0032626907 0.054112166 -0.016432367
0002b0 a9 ae 90 3d 22 5e 27 bb 6f 6f d1 bd 63 f3 8e 3c
       0.07064564 -0.0025538285 -0.102263324 0.01745004
0002c0 7d 68 b9 bb e3 5f 06 bd de 79 fb 3c bc c7 d9 bc
       -0.005658208 -0.03280629 0.03069776 -0.026584499
0002d0 fe c9 8a bc e6 28 e7 bb 2a 89 51 3d 90 45 2b 39
       -0.01694202 -0.007054436 0.0511562 0.00016333745
0002e0 cb 75 a9 3d 8b f6 69 3d 02 b4 2a 3d 76 0c 8e bc
       0.0827442 0.057119887 0.041675575 -0.017339926
0002f0 fb db 61 bd 61 98 fb 3d 4f 65 6b 3d 6a 82 8d 3d
       -0.05514143 0.12284923 0.057469662 0.0690964
000300 cc f0 aa 3c c7 bf 1d 3b f4 4f 32 bc 43 89 65 bd
       0.020866774 0.0024070607 -0.01088332 -0.056039106
000310 b6 b6 93 bd 5a d4 0f bd f1 a3 02 be 90 23 ef 3c
       -0.07212584 -0.035114624 -0.12757851 0.029191762
000320 6c 4a 86 3c 94 8f 3d 3d b1 bb 86 bd 51 0e 28 bd
       0.016392909 0.046279505 -0.06578768 -0.04102928
000330 b3 03 6c bd 81 02 28 3d 94 ae 07 bd a8 86 9c 3d
       -0.057620715 0.041018013 -0.033125475 0.07642871
000340 70 28 ee 3c 17 bf be bb ee fe a5 3b 71 88 22 bd
       0.029072016 -0.0058211195 0.0050657904 -0.039680902
000350 84 ee 95 bc cf 67 d7 bc 7d 1d ce 3c ac 6b c4 3b
       -0.01830221 -0.026294617 0.025160545 0.005994281
000360 5a 3e 85 bd 2f fd 57 bd 68 fb 99 3d 20 e6 27 be
       -0.06506033 -0.05273169 0.07518655 -0.1639638
000370 f4 4b 01 3d 8e c2 eb 3d ad 8d 24 3d 75 01 be bb
       0.031566575 0.11511718 0.040174175 -0.0057985135
000380 5e 21 a1 bd 2b 38 0b 3c cb 05 da bd 26 7c b8 3b
       -0.078676924 0.008497278 -0.10645636 0.005630034
000390 cb 00 43 bc f4 54 6e bd 73 e2 d5 bc e8 4b ae 3d
       -0.0119020445 -0.058186486 -0.026108956 0.08510572
0003a0 ad 0a 7e bc e9 28 83 3d 21 6e be 3c b2 08 61 bd
       -0.015505475 0.06404287 0.023245873 -0.054939933
0003b0 1e 2a ce 3d 50 2c b9 bd b0 11 2e bd 85 0c 61 3d
       0.10066627 -0.09041655 -0.042497337 0.05494358
0003c0 ec fe b8 3c 4f 6d 04 3d e8 3b 93 bd 02 95 ce 3c
       0.022582494 0.032330807 -0.071891606 0.025217537
0003d0 cb e3 c4 3c 50 c9 76 bd 1b 94 3c 3d 94 5b b2 bd
       0.024034401 -0.06025058 0.046039682 -0.087088734
0003e0 7b bc 55 bc 18 f1 00 bd 33 15 a3 bc 99 19 d4 3b
       -0.0130454255 -0.031479925 -0.01990757 0.006472778
0003f0 16 5f 8f 3d 9c d4 1a bd 28 de 8f bd d2 c9 64 bc
       0.07000558 -0.037800416 -0.07024795 -0.013964133

weight f4 [200]
000000 b8 67 80 3f 58 30 82 3f 02 9b 7f 3f b0 5d 82 3f
       1.0031652 1.0171003 0.998459 1.0184841
000010 fb c1 79 3f fc 34 77 3f cd 35 78 3f 31 22 78 3f
       0.97561616 0.9656522 0.96957093 0.9692717
000020 f4 7e 83 3f e9 90 88 3f 25 8a 80 3f 8b 58 80 3f
       1.0273118 1.0669223 1.0042158 1.0027021
000030 eb 50 75 3f 12 d6 83 3f 2e 1d 84 3f 24 09 86 3f
       0.95826596 1.0299704 1.0321405 1.047154
000040 54 29 86 3f 1b 2c 7c 3f c9 c7 70 3f b1 0c 85 3f
       1.0481362 0.985048 0.9405485 1.0394498
000050 86 ed 77 3f f5 4e 87 3f 33 2e 80 3f 4a e6 86 3f
       0.96846807 1.0570971 1.0014099 1.0539029
000060 4a f6 81 3f 28 b2 82 3f 88 3a 80 3f da 70 73 3f
       1.0153286 1.0210619 1.0017862 0.9509407
000070 d1 9f 81 3f a7 51 75 3f af f0 81 3f e8 f5 81 3f
       1.0126897 0.95827717 1.0151576 1.015317
000080 ae fb 78 3f f6 45 7b 3f 4d b6 7d 3f b1 07 81 3f
       0.9725903 0.98153627 0.99106294 1.0080472
000090 f2 9f 84 3f 00 c2 7e 3f 3b 67 78 3f 8b b2 81 3f
       1.0361311 0.9951477 0.9703252 1.0132612
0000a0 11 18 81 3f 21 3e 82 3f c2 d0 73 3f a2 cc 80 3f
       1.008547 1.017521 0.95240414 1.0062449
0000b0 ec 6c 77 3f 9d fb 80 3f 11 79 7c 3f 4d 96 81 3f
       0.96650577 1.0076786 0.9862223 1.0123993
0000c0 ae 09 81 3f c8 ef 7d 3f 51 b1 83 3f 15 a4 82 3f
       1.0081079 0.99194 1.0288488 1.0206324
0000d0 43 c7 7b 3f fe 42 7a 3f 8f c2 7d 3f 7d c8 7c 3f
       0.98350924 0.9775847 0.99125 0.9874342
0000e0 3e 94 84 3f d1 7e 72 3f 1c 43 82 3f 89 fc 7f 3f
       1.035774 0.94724756 1.017673 0.99994713
0000f0 b2 03 86 3f 71 12 81 3f d9 09 7e 3f cf 6b 81 3f
       1.0469878 1.0083753 0.99233776 1.0111026
000100 66 87 7c 3f d6 b6 7f 3f 59 aa 7a 3f 15 bc 79 3f
       0.986441 0.9988836 0.9791618 0.97552615
000110 e5 59 7f 3f d5 79 7f 3f 6e b5 7e 3f 2a 99 6d 3f
       0.99746543 0.99795276 0.9949559 0.92811835
000120 b1 21 7a 3f 2d 86 7f 3f d7 5b 80 3f 3a f4 77 3f
       0.9770766 0.9981411 1.0028027 0.96857035
000130 02 c9 7c 3f 20 c3 7a 3f 6e 91 7d 3f cf 47 83 3f
       0.98744214 0.9795399 0.99050033 1.0256289
000140 63 15 84 3f e4 8e 7a 3f 75 24 7d 3f 89 4a 81 3f
       1.0319027 0.97874284 0.98883754 1.0100871
000150 16 49 77 3f 7e 45 7b 3f 29 b8 83 3f 52 82 83 3f
       0.96595895 0.9815291 1.0290576 1.0274146
000160 7d 1d 81 3f 68 c2 80 3f dd af 83 3f 42 a2 79 3f
       1.0087124 1.0059328 1.0288044 0.9751321
000170 f3 c2 78 3f a0 60 84 3f 2b 90 72 3f cf 85 80 3f
       0.9717247 1.0341988 0.9475123 1.0040835
000180 6e 93 7b 3f fb 26 80 3f be ab 7f 3f 49 0f 84 3f
       0.98271835 1.0011896 0.9987143 1.0317165
000190 07 0b 82 3f 13 49 7f 3f 35 54 82 3f c9 43 7a 3f
       1.0159615 0.9972088 1.0181948 0.9775968
0001a0 be f8 84 3f 7e 6f 7f 3f eb bd 83 3f 65 fa 7a 3f
       1.038841 0.997795 1.0292333 0.9803832
0001b0 c8 7d 86 3f 11 c1 81 3f 6f 2d 7b 3f 14 c9 83 3f
       1.0507135 1.0137044 0.981162 1.0295739
0001c0 5b 37 81 3f 37 ff 7d 3f 92 84 7a 3f ce 4e 82 3f
       1.0095018 0.9921755 0.97858536 1.0180299
0001d0 f2 b4 7c 3f 40 23 82 3f 5d bb 7e 3f 43 ac 79 3f
       0.987136 1.0167007 0.99504644 0.97528476
0001e0 61 e8 83 3f 54 ed 7d 3f 6b d3 7f 3f 1b 45 85 3f
       1.0305291 0.9919026 0.99931973 1.0411714
0001f0 a5 08 82 3f d0 25 73 3f af 98 77 3f 16 56 7d 3f
       1.0158888 0.9497957 0.9671735 0.9895948
000200 5d 89 84 3f 67 96 81 3f b9 fd 70 3f fe 6e 85 3f
       1.035442 1.0124024 0.9413715 1.0424497
000210 31 b3 82 3f 0f e8 76 3f e5 13 79 3f ec 26 7d 3f
       1.0210935 0.96447843 0.9729598 0.98887515
000220 dd 4f 7b 3f c2 1b 83 3f 1f 13 80 3f 99 10 7a 3f
       0.98168737 1.0242846 1.0005835 0.97681576
000230 fa a9 82 3f 45 5d 82 3f 31 49 81 3f 8e 4e 7c 3f
       1.0208123 1.0184714 1.0100461 0.98557365
000240 49 44 85 3f f1 54 7e 3f 9c 76 79 3f a7 3f 80 3f
       1.0411464 0.9934836 0.9744661 1.0019425
000250 53 31 7e 3f 22 01 81 3f bf 3c 7f 3f aa e1 72 3f
       0.9929401 1.0078471 0.99702066 0.94875586
000260 27 94 72 3f a2 35 86 3f 10 8c 81 3f 07 61 80 3f
       0.9475731 1.0485117 1.0120869 1.002961
000270 e5 b3 7d 3f 94 2e 7c 3f e8 3d 84 3f 80 af 82 3f
       0.9910262 0.9850857 1.0331392 1.0209808
000280 b8 c5 79 3f 31 44 74 3f 3c 1d 86 3f f2 a0 7e 3f
       0.9756732 0.9541655 1.0477672 0.99464333
000290 a9 d0 77 3f b2 73 76 3f 36 1d 7b 3f fc 96 7c 3f
       0.96802765 0.9627029 0.9809145 0.98667884
0002a0 17 d9 7f 3f 6b 0c 82 3f 30 e2 80 3f b9 77 82 3f
       0.9994063 1.016004 1.0069027 1.0192786
0002b0 f9 c7 76 3f c5 15 7f 3f 5a 8b 7b 3f 91 81 6c 3f
       0.96398884 0.9964259 0.9825951 0.923852
0002c0 b7 91 7b 3f 94 0f 78 3f 31 04 7f 3f 33 94 84 3f
       0.9826922 0.9689877 0.9961577 1.0357727
0002d0 c3 6c 7b 3f 2b 3d 80 3f 26 c4 81 3f f7 7f 79 3f
       0.9821283 1.0018667 1.0137985 0.97460884
0002e0 c8 ee 75 3f e3 be 7f 3f 42 3a 81 3f 5b 89 80 3f
       0.96067476 0.99900645 1.0095904 1.0041918
0002f0 d9 c6 85 3f 20 13 7e 3f 9d 7a 80 3f 2c 7e 82 3f
       1.0451308 0.9924793 1.0037419 1.0194755
000300 74 90 80 3f 58 b7 81 3f 24 7e 73 3f 88 ba 83 3f
       1.0044084 1.0134077 0.9511435 1.02913
000310 09 35 78 3f fe b9 82 3f 00 66 83 3f db 9f 69 3f
       0.96955925 1.021301 1.0265503 0.91259545

bias f4 [200]
000000 4c e7 88 3c c1 96 92 bb 70 1e 05 bd 70 08 4b 3c
       0.016711853 -0.0044735377 -0.03249973 0.012392148
000010 9a dc 9e 3d c1 8e 9b 3b 59 57 b8 3c ca e0 01 bd
       0.0775692 0.004747242 0.022502588 -0.031708516
000020 fb 89 b8 bc 1d fe e6 3c 7d ca 99 bd 9e e1 36 3d
       -0.022526732 0.028197343 -0.07509325 0.04464876
000030 43 04 92 bd 2d 10 1b bd 6f 8b a5 bd 97 3a a3 3d
       -0.07129719 -0.037857223 -0.080832355 0.079701595
000040 b0 f0 a1 bd 64 72 f3 bc 6b 71 16 3d 4a 58 4b 3d
       -0.079072356 -0.029717632 0.036729258 0.049644746
000050 c7 6a 8c 3c 3c 8f 55 3d 86 ac be bc 2f 60 a3 3c
       0.01714076 0.052138552 -0.023275625 0.019943325
000060 f5 52 ef 3c d9 0b 8c 3d ce db 01 3c 62 fe 01 3c
       0.029214362 0.06838197 0.007925941 0.007934185
000070 6b 8c bc 3c 12 36 83 3c 11 7b 12 bd 48 46 59 bd
       0.023016175 0.016016994 -0.035761897 -0.05304554
000080 a1 c8 3c bd a9 f6 5a bd 6b a1 ff 3c fe ef 53 bd
       -0.046089772 -0.05345789 0.0312049 -0.051742546
000090 a7 4d 48 bd e2 6d ff 3b ea 60 0d bd 56 20 b0 3b
       -0.04890218 0.0077950815 -0.034516253 0.0053749485
0000a0 d0 d0 c5 3d 35 9e 52 3d 7d 32 78 bd 78 dd 44 bd
       0.096589684 0.05142041 -0.060595024 -0.04806277
0000b0 0d 57 8e bd bf 6f 83 bc 99 e8 32 3d 73 e1 19 3d
       -0.06950197 -0.016044496 0.043678854 0.03756852
0000c0 d1 5b 0d bd 3c 34 8d 3b 09 ff 2d 3d 54 22 78 3c
       -0.03451139 0.0043092053 0.04247955 0.015144903
0000d0 14 c2 e9 3b 22 a6 00 3d ca f6 22 bd 25 44 24 3d
       0.0071337316 0.031408437 -0.039786138 0.04010405
0000e0 cc bb c3 3b aa 4d 4d 3c 96 28 85 3d f2 58 ba bc
       0.005973315 0.012530724 0.06501882 -0.02274749
0000f0 b9 0a 8f 3d 91 c1 3d 3d 91 68 50 bd 92 0c 19 3d
       0.06984467 0.046327177 -0.050880972 0.037365504
000100 74 20 01 bd d0 35 41 bd 5f 3c 0b bc a0 14 59 3b
       -0.03152509 -0.04717046 -0.00849828 0.0033123866
000110 40 d7 51 bc 74 47 33 bd ee c4 20 bd ca b7 8f 3d
       -0.012807667 -0.043769315 -0.039250307 0.07017477
000120 f6 9d 5e bd 58 84 f9 3c e5 a1 c2 3d 42 87 e5 3c
       -0.054349862 0.030458614 0.09503535 0.028018598
000130 69 1c ae bc 67 bc c3 bc 46 71 a1 bc db 73 d3 3c
       -0.021253781 -0.023893548 -0.019707333 0.02581208
000140 62 b8 ae 3d 2c 29 87 3a ab d8 5a bd 68 f7 5d 3d
       0.08531262 0.0010311953 -0.053429287 0.054191023
000150 94 62 3a bd 4e 6c e4 ba 1d 33 15 3d 73 10 b1 bd
       -0.045504168 -0.0017427297 0.0364257 -0.086457156
000160 79 66 00 3e bd 89 11 bd 26 02 bc 3c dd 81 f5 3b
       0.1253909 -0.035531748 0.022950243 0.0074922876
000170 81 64 e3 3d 84 d6 71 3d dd 3a b5 3c 68 95 d3 3c
       0.11103154 0.05904247 0.022122795 0.025828078
000180 8a 92 a3 3b 24 50 f7 bc 5c fe 0d bd 77 c7 52 3d
       0.004991834 -0.030189581 -0.034666404 0.051459756
000190 80 3e 52 bb 8e 9d f8 3c a6 93 c1 bc ff 69 15 bc
       -0.003208071 0.030348565 -0.023629975 -0.00911951
0001a0 6e 6c bc bc 1b 3b 1c bd cd 4f 20 bc 6d 8b cb 3c
       -0.023000922 -0.038142305 -0.009784651 0.024846757
0001b0 f3 83 d5 bc c4 ce 10 3d 9e 4b 0d bc 2d ac 55 3b
       -0.026063895 0.035353437 -0.008623986 0.0032603845
0001c0 b6 b5 0a bd 77 34 eb 3b a5 cf 05 3a 38 fe 80 ba
       -0.0338647 0.007177885 0.0005104489 -0.0009841388
0001d0 54 40 27 bd 86 f4 a7 3d 55 6c b4 bc bb 92 b7 bb
       -0.040832832 0.08200936 -0.022024313 -0.0056022084
0001e0 84 14 eb 3c 7c 85 35 3c 2b af 82 3d b4 d1 07 3c
       0.028696306 0.011079188 0.06381067 0.008289743
0001f0 64 2c b9 3d 2f 7a 94 bc c3 24 12 bc 04 61 0b bd
       0.0904167 -0.018124668 -0.0089198975 -0.03402807
000200 44 43 29 3d 09 f7 39 bc e4 aa a4 3c 46 a5 3b 3c
       0.041323915 -0.011350402 0.020101018 0.0114529785
000210 55 42 cd bd 29 f3 d8 3c 76 58 a5 3d 1e bf 0d bc
       -0.100224175 0.026483135 0.08073513 -0.008651523
000220 86 83 b0 ba 22 9a dd 3b 75 3f 81 3c 3e c6 f4 3b
       -0.0013466931 0.006762759 0.015777329 0.0074699214
000230 98 4d 3a bd 74 63 ef bc 55 8a 00 3d 67 97 96 bc
       -0.045484155 -0.029222228 0.031381924 -0.018382741
000240 99 ce 72 3d 81 2d fa bc 30 a4 84 3c 1d 08 26 3d
       0.059279058 -0.030539276 0.016191572 0.04053508
000250 75 76 85 3d a1 63 08 3d 1c 85 2a bd 77 bb 34 bd
       0.065167345 0.03329814 -0.04163085 -0.044124093
000260 a2 66 e9 bc ce 55 51 3d 52 44 a3 3d 79 fa 9b 3d
       -0.028491322 0.05110722 0.079720154 0.07616133
000270 ff b2 1e 3d 0e 4c 9f bb 42 90 d7 ba ff 7a e6 3c
       0.038744923 -0.0048613613 -0.001644619 0.028134821
000280 0f 00 4c bc 03 3f 6b 3d 16 3b 85 3d 48 02 1c 3d
       -0.012451186 0.05743314 0.065054104 0.038088113
000290 24 52 d0 3b 6a d8 00 bd c2 2b d3 3c 00 26 6f 3c
       0.006357448 -0.03145639 0.025777701 0.014596462
0002a0 18 a0 02 3d fc dd 0c 3d c2 fc 61 3d 85 31 4f 3d
       0.03189096 0.03439139 0.05517269 0.050584335
0002b0 ce e1 d2 bc 23 c0 0b 3d 25 3d c0 3b 4c bf 2b 3c
       -0.025742438 0.034118783 0.005866664 0.01048262
0002c0 ae fe d2 3b 4d 90 16 bd 05 1f 2d 3d 83 76 57 bb
       0.0064390516 -0.03675871 0.04226591 -0.0032877035
0002d0 0c 46 d3 ba 55 ad 87 3c 7c ec 23 3b 8e c9 58 bc
       -0.0016118898 0.016562143 0.0025012782 -0.013231648
0002e0 09 15 4d bd 5f ba 6c 3d 67 7d 8a bd c3 e1 79 bc
       -0.05006889 0.057794925 -0.067622 -0.01525158
0002f0 b6 7d 30 3d e6 68 6b bd 71 07 6a bd a3 01 15 3d
       0.043088637 -0.057473086 -0.057136003 0.036378514
000300 fe 78 a3 bd c3 09 53 3c 4e e9 5b bd 42 c9 90 3d
       -0.07982062 0.012880745 -0.053689294 0.07069637
000310 25 c2 6e bb 7f e4 05 3d 23 a6 1a 3d 27 bf b1 3c
       -0.0036431637 0.032688614 0.037756097 0.021697594

running_mean f4 [200]
000000 5a 9f 9c 3e 28 62 91 3e 1c c2 cd 3e 4f 35 d1 3e
       0.30590326 0.283952 0.40187156 0.40860984
000010 03 17 ad 3e 86 8e b2 3e c5 32 89 3e 2a 23 95 3e
       0.3380662 0.34874362 0.26796547 0.2912839
000020 1e 07 9f 3e dd cd b2 3e e5 a3 b1 3e 4b ca c1 3e
       0.31060117 0.34922686 0.34695354 0.3784965
000030 30 9f bf 3e 5e 51 01 3f a7 4b b9 3e 77 a6 ee 3e
       0.37426138 0.5051478 0.3619053 0.46611378
000040 c6 74 e6 3e af 03 b4 3e d0 79 ce 3e bd e9 ab 3e
       0.45010966 0.3515906 0.4032731 0.33576766
000050 76 4f 81 3e f0 ce c4 3e 6d 71 ce 3e 55 00 dd 3e
       0.25255936 0.3843913 0.40320912 0.43164316
000060 d9 88 b2 3e bf d1 ce 3e fc 1c a4 3e e6 d2 96 3e
       0.3487003 0.403944 0.32053363 0.29457778
000070 06 5d 44 3e fa 4d a5 3e 20 0a 72 3e 52 6a 95 3e
       0.1917611 0.32286054 0.23636675 0.29182678
000080 84 1c a4 3e c2 cf 77 3e da ba 48 3e 17 08 89 3e
       0.32053006 0.24200347 0.19602528 0.26763985
000090 d0 da 01 3f 9e a9 d3 3e 30 f1 34 3e ad e3 cb 3e
       0.50724506 0.41340345 0.1767013 0.3982214
0000a0 14 7b d7 3e 6f ef c0 3e 61 34 9e 3e b0 ca cf 3e
       0.4208609 0.37682673 0.30899337 0.40584326
0000b0 23 35 60 3e ec 28 f0 3e b2 a5 aa 3e 7b 2a 9e 3e
       0.2189527 0.4690622 0.3332954 0.30891785
0000c0 88 f6 b0 3e da a5 8b 3e ee a9 a0 3e db 55 ab 3e
       0.34563088 0.27274972 0.31379646 0.3346394
0000d0 09 a7 5b 3e 57 cb b1 3e 28 07 c1 3e e9 13 6d 3e
       0.21450438 0.34725448 0.37700772 0.23152126
0000e0 d9 98 9a 3e af 61 a1 3e 28 a7 be 3e d1 0f ea 3e
       0.30194739 0.3151984 0.37236905 0.45715192
0000f0 8c 49 eb 3e 7a 85 8a 3e 14 dd c1 3e 03 a0 c1 3e
       0.4595455 0.2705496 0.37863982 0.37817392
000100 58 38 8f 3e c8 7b e3 3e 26 d3 f8 3e 37 dc ba 3e
       0.27972674 0.44430375 0.48598593 0.36496136
000110 7b b7 81 3e 17 4e 69 3e df 07 9b 3e 14 c9 a4 3e
       0.25335297 0.22783695 0.30279443 0.3218466
000120 86 da 98 3e 9e 8c 07 3f a2 c2 b5 3e 66 ae 84 3e
       0.2985422 0.5294894 0.35500056 0.25914305
000130 40 29 66 3e ad cd bc 3e 93 f6 74 3e 49 d6 ca 3e
       0.22476673 0.36875668 0.23922186 0.39616612
000140 d7 33 b2 3e dd ec 9a 3e 04 f0 86 3e 60 33 f0 3e
       0.34805176 0.30258837 0.26354992 0.46914196
000150 62 97 a6 3e 20 c6 be 3e 47 ac ba 3e ed d8 de 3e
       0.3253737 0.37260532 0.36459562 0.43524876
000160 a1 7b cc 3e d0 3c db 3e ba 6b 92 3e b0 42 84 3e
       0.3993807 0.42819834 0.28597814 0.2583213
000170 2e 5c 7d 3e e2 19 be 3e e0 7f 8f 3e bf 52 c3 3e
       0.24742195 0.37129122 0.28027248 0.38149068
000180 f4 47 aa 3e ca 8c 7b 3e ec 75 8c 3e 04 84 b4 3e
       0.3325802 0.24565426 0.27433717 0.3525697
000190 bb 25 d1 3e 5e 8d a9 3e 27 be bc 3e de 0e b2 3e
       0.408491 0.33115667 0.36863825 0.34776968
0001a0 72 f9 9e 3e 80 f9 95 3e 46 e1 fa 3e 2f 1d ba 3e
       0.31049687 0.29291916 0.48999995 0.3635039
0001b0 f2 48 93 3e 68 8f c2 3e a2 81 8a 3e 18 19 71 3e
       0.2876659 0.38000035 0.27052027 0.23544729
0001c0 94 0c 47 3e 33 12 92 3e 85 73 9e 3e 7d 08 e0 3e
       0.19438392 0.2852951 0.3094751 0.43756476
0001d0 65 4e 90 3e 2a 47 d6 3e 23 f5 87 3e 46 07 8a 3e
       0.2818481 0.4185117 0.26554212 0.26958674
0001e0 fe 29 71 3e df 46 7c 3e 7a 63 bf 3e e8 19 b2 3e
       0.23551175 0.2463641 0.37380582 0.3478539
0001f0 cc 4b 9b 3e 17 91 a4 3e 9a 3a ce 3e f6 4d bb 3e
       0.30331266 0.32141945 0.40279084 0.36582917
000200 a1 66 b9 3e 0f 35 e2 3e 56 f2 b1 3e 8b 52 c1 3e
       0.36211112 0.44181105 0.347552 0.37758288
000210 42 5e 88 3e 8d f9 ae 3e 72 97 a0 3e 0b 63 ee 3e
       0.26634413 0.34174767 0.31365544 0.4655994
000220 39 f4 a3 3e 4f b6 60 3e 5d 89 c3 3e 83 fc 85 3e
       0.32022265 0.21944545 0.38190737 0.26169214
000230 38 96 b0 3e 8e 3d a5 3e b7 5f c0 3e 46 57 60 3e
       0.34489608 0.32273525 0.37573025 0.21908292
000240 e8 da c4 3e 24 df c2 3e 73 90 b1 3e 1b 4d 8f 3e
       0.38448262 0.38060868 0.34680519 0.27988514
000250 c4 5f b1 3e 92 7d a8 3e ac 6c 62 3e 70 d8 91 3e
       0.34643376 0.32908303 0.22111768 0.2848544
000260 82 49 8a 3e 82 92 f7 3e eb fe 6d 3e 3a eb 9f 3e
       0.27009207 0.48353964 0.23241775 0.3123415
000270 ec 18 d9 3e f7 72 75 3e de ed ec 3e 25 ba a0 3e
       0.42401826 0.23969637 0.46275228 0.31392017
000280 26 12 8b 3e 73 8a e2 3e 66 b2 e7 3e 4a 84 c8 3e
       0.27162284 0.44246253 0.45253295 0.3916343
000290 ad 0b 7f 3e fd 0c a8 3e 06 97 8e 3e 3d eb ec 3e
       0.24906798 0.3282241 0.27849597 0.46273223
0002a0 9b d8 c8 3e dc 3d c9 3e c4 e1 72 3e 0f d4 ac 3e
       0.39227757 0.39305007 0.23718935 0.33755538
0002b0 8a 6a b1 3e 05 e2 84 3e 3a cf ae 3e 4b 15 c3 3e
       0.34651595 0.2595369 0.34142476 0.38102183
0002c0 de 43 7b 3e c4 6f 80 3e 65 f1 a4 3e 67 52 87 3e
       0.24537608 0.2508527 0.3221542 0.26430055
0002d0 0d a5 82 3e b0 92 ba 3e 2b aa bb 3e 3e 6d 58 3e
       0.2551655 0.3644004 0.36653265 0.21135423
0002e0 5d f6 8c 3e e7 be ca 3e fe 98 e6 3e 44 84 ba 3e
       0.2753171 0.39598772 0.450386 0.36429036
0002f0 44 20 8a 3e c6 f4 bb 3e ac 1a f4 3e ff 1b 94 3e
       0.26977742 0.36710185 0.476766 0.2892761
000300 e0 23 bd 3e 5b e5 ac 3e 6a b1 87 3e d1 3d c8 3e
       0.36941433 0.33768734 0.26502544 0.39109662
000310 4b 2a c1 3e 5c ac ba 3e 57 a2 cf 3e 14 e9 90 3e
       0.3772758 0.36459625 0.40553543 0.28302824

running_var f4 [200]
000000 66 50 53 3e 0d 19 27 3e 5f 18 bd 3e c1 a2 bf 3e
       0.20636138 0.1631815 0.36932656 0.3742886
000010 52 24 7a 3e 94 27 30 3e 66 7c 38 3e 30 5e 44 3e
       0.24427918 0.17202598 0.18016204 0.19176555
000020 ea 54 46 3e 22 cb 52 3e d7 e1 d3 3e d0 51 7f 3e
       0.1936833 0.20585302 0.4138324 0.24933553
000030 90 b1 81 3e ad 3d af 3e 30 18 93 3e 98 b1 af 3e
       0.25330782 0.34226742 0.2872939 0.3431518
000040 99 c7 99 3e 06 a3 8c 3e fa 71 d1 3e b8 e0 91 3e
       0.30035093 0.27468127 0.4090727 0.2849176
000050 22 05 19 3e c2 a6 84 3e 7f f4 98 3e 2b a5 c0 3e
       0.14943364 0.25908476 0.29874036 0.37626013
000060 81 d4 b1 3e 1d 91 e9 3e b9 3e 72 3e b5 58 44 3e
       0.3473244 0.45618525 0.2365674 0.19174464
000070 59 5f b6 3d d8 bc 53 3e f4 bd 12 3e 2d 8b 39 3e
       0.08904905 0.20677507 0.14330274 0.18119498
000080 b8 d2 55 3e b6 43 01 3e b3 50 ba 3d 0c 8e 10 3e
       0.20881164 0.12623486 0.090974234 0.14116687
000090 a3 c4 f5 3e 1c 3d c6 3e 28 1c 1f 3e 64 cf a7 3e
       0.48001584 0.38718498 0.15538085 0.32775414
0000a0 9c 09 a2 3e 6b c2 a2 3e 83 ad 3c 3e c3 28 74 3e
       0.31647956 0.31788954 0.18425564 0.23843674
0000b0 b4 b5 1f 3e 6b bd d7 3e 04 15 83 3e 67 84 6b 3e
       0.15596658 0.42136702 0.2560197 0.22999726
0000c0 20 6a 62 3e 5d 82 58 3e 0f 4f 64 3e d1 79 96 3e
       0.22110796 0.2114348 0.22295783 0.29389814
0000d0 47 69 df 3d 52 aa 84 3e 6e 27 79 3e 42 5f 05 3e
       0.10908752 0.25911194 0.24331447 0.13024619
0000e0 84 86 48 3e 22 f4 66 3e 7d 13 83 3e 38 01 bf 3e
       0.19582564 0.22554067 0.25600806 0.37305617
0000f0 ea c8 b8 3e 5b 06 53 3e de b3 6f 3e fc cd a7 3e
       0.36090785 0.20607893 0.23408458 0.3277434
000100 68 2b 38 3e 53 ff d5 3e a9 df e7 3e 78 ed 9d 3e
       0.17985308 0.4179636 0.45287827 0.30845237
000110 bb 66 11 3e e5 d1 1a 3e 39 c7 70 3e 8b 9d 41 3e
       0.14199345 0.15119131 0.23513497 0.18907754
000120 3b 6d 47 3e 65 a6 00 3f 1e 77 a0 3e 18 d7 14 3e
       0.19475262 0.502539 0.3134088 0.14535177
000130 84 b6 07 3e bb 57 a9 3e 1e 76 e3 3d 44 dc e9 3e
       0.13253218 0.33074746 0.111065134 0.45675862
000140 36 0c 8c 3e fd 97 53 3e ae 40 5b 3e 03 cd a3 3e
       0.27353066 0.20663448 0.21411392 0.3199235
000150 39 7d 83 3e 52 26 8f 3e 14 6f 86 3e be 25 9b 3e
       0.25681475 0.27958924 0.2625662 0.30302233
000160 5b e0 8c 3e f0 18 94 3e 04 f3 58 3e d0 9f 10 3e
       0.2751492 0.28925276 0.21186453 0.14123464
000170 33 ee 0f 3e 59 61 a4 3e fa 10 35 3e d4 56 ce 3e
       0.1405571 0.3210552 0.17682257 0.4030062
000180 78 fb 81 3e 2f ae 00 3e 7c 62 59 3e 32 45 a2 3e
       0.25387168 0.12566446 0.21228975 0.31693417
000190 f5 9d af 3e 91 e5 69 3e c2 12 a4 3e 66 d8 79 3e
       0.343002 0.22841479 0.3204556 0.24398956
0001a0 88 e3 63 3e 61 4e 26 3e b4 8b dc 3e 0b e8 93 3e
       0.22254765 0.16240837 0.43075335 0.28887972
0001b0 82 f0 2b 3e f7 18 ca 3e 99 b7 30 3e fb ad 27 3e
       0.16790965 0.39472172 0.17257537 0.16374962
0001c0 11 36 b4 3d ea ec 2a 3e a8 61 45 3e 1b bc b0 3e
       0.08799375 0.16691938 0.19275534 0.34518513
0001d0 7a d4 2d 3e 80 ca eb 3e 2f e0 4a 3e 85 91 68 3e
       0.16975585 0.46052933 0.19812082 0.22711761
0001e0 d0 77 1c 3e ab 21 0b 3e 94 d1 81 3e f8 38 ae 3e
       0.1528008 0.13587062 0.25355208 0.3402784
0001f0 25 af 2d 3e 81 b8 78 3e 56 a2 9e 3e e2 42 81 3e
       0.16961344 0.24289133 0.30983227 0.2524634
000200 4f 24 8a 3e 16 15 a1 3e 4b a3 8c 3e 86 c7 ca 3e
       0.26980826 0.314614 0.27468333 0.3960535
000210 95 3b 02 3e 1f 97 86 3e 66 79 48 3e 44 6e d9 3e
       0.12718041 0.2628717 0.1957756 0.42466938
000220 60 45 6d 3e 2b 7d 33 3e b2 2d c3 3e 97 79 04 3e
       0.23170996 0.17528217 0.381208 0.12937008
000230 b9 75 4c 3e a1 d1 5f 3e 52 b4 8d 3e d5 c1 02 3e
       0.19966783 0.21857311 0.27676636 0.12769254
000240 41 7d cd 3e 0e 55 88 3e 71 dc 95 3e fa e1 49 3e
       0.40134624 0.26627392 0.29269746 0.1971511
000250 89 b3 4b 3e 9a 17 89 3e 9a 70 de 3d 14 0e 6d 3e
       0.19892706 0.2677582 0.10861321 0.23149902
000260 b8 d5 1c 3e 6b 74 fb 3e ff fe d2 3d 4c 28 87 3e
       0.15315902 0.49112257 0.10302543 0.26397932
000270 3a 63 ce 3e 35 40 0d 3e af f8 f3 3e 21 7f 9b 3e
       0.4031008 0.13794024 0.47650668 0.3037043
000280 d9 9e 02 3e 36 71 9d 3e 24 a8 a3 3e 99 56 99 3e
       0.12755908 0.30750436 0.3196422 0.2994888
000290 86 5c ee 3d a4 ac 77 3e 14 08 36 3e 44 df b0 3e
       0.11638741 0.24186951 0.17776519 0.34545338
0002a0 df 94 8d 3e 3e 73 a4 3e 3b 8b 0f 3e 02 5e 49 3e
       0.27652642 0.32119173 0.14017956 0.19664767
0002b0 fa 37 6d 3e 04 7e 4d 3e c5 e2 8b 3e 88 cd ab 3e
       0.23165885 0.20067602 0.2732145 0.33555245
0002c0 ad 4f 23 3e cb d0 13 3e 1f 27 59 3e a0 ec 1c 3e
       0.15948363 0.14435117 0.2120633 0.1532464
0002d0 08 dd 19 3e 0e 7f 82 3e c1 d8 8a 3e 6e 05 06 3e
       0.15025723 0.2548756 0.27118495 0.13088009
0002e0 49 24 85 3e 26 76 d2 3e f7 46 d6 3e a0 d6 81 3e
       0.26004246 0.41105765 0.41851017 0.25359058
0002f0 60 2c 33 3e 44 18 c2 3e 89 ed b8 3e cf d2 8a 3e
       0.17497396 0.37909138 0.36118725 0.2711396
000300 68 dd 8d 3e 93 cf b6 3e f9 61 14 3e 2b 39 b5 3e
       0.27707982 0.35705242 0.14490499 0.35395178
000310 4c 57 73 3e 86 67 87 3e fc 37 a2 3e 81 e2 62 3e
       0.2376377 0.2644617 0.31683338 0.22156717
